pytorch-challenge/model.fc.0-2727.pt (torch_old, 836532 bytes, 2 tensors)

weight f4 [102, 2048]
000000 58 76 9c 3b 92 ff d5 3c f7 8b 50 3d eb e8 40 3c
       0.00477485 0.026122842 0.05091473 0.011774282
000010 42 6d 3f bd 42 16 3b 3d a5 c7 e7 bd e5 65 8f bd
       -0.046735056 0.045675524 -0.11317376 -0.07001857
000020 61 48 33 3d 7b 93 06 bd b0 d1 86 3d 16 be 0d 3d
       0.043770198 -0.032855492 0.065829635 0.03460511
000030 b0 ad b0 bd bd 09 85 bd e3 e6 15 3d 1b 16 f3 bd
       -0.08626878 -0.06495998 0.036597144 -0.11869451
000040 b3 d1 6b 3b 1d 20 a1 bb 94 ea 4c 3a 04 48 14 3e
       0.0035983145 -0.0049171583 0.0007816937 0.14480597
000050 aa e6 18 3d 40 74 99 bd b9 b9 06 3e 1a 2c b1 3a
       0.037329353 -0.07492876 0.13156785 0.0013517172
000060 dc 6b c7 bb 24 19 00 3d 78 e9 9a 3a 79 63 98 3c
       -0.006085856 0.031273976 0.0011818847 0.01860212
000070 c1 32 09 bd 47 f6 31 bd 05 85 9c 3b b1 90 d1 bd
       -0.03349567 -0.04344776 0.0047765994 -0.10232676
000080 99 94 eb 3d a2 22 b5 3d d7 07 60 be 62 b6 62 3c
       0.11502952 0.08844496 -0.2187799 0.013837429
000090 7e 39 43 3c b7 ad 6a 3c a9 d2 83 bd 42 2e c7 bd
       0.011915563 0.014323643 -0.064366646 -0.0972562
0000a0 ba 10 21 3d 3f c7 73 bd 53 22 b2 bc 81 85 14 3a
       0.039322592 -0.059516188 -0.021744883 0.00056656456
0000b0 e1 60 a6 3d b7 b2 8f bc 70 f6 eb 3a d2 90 05 3d
       0.08123947 -0.017541273 0.0018002521 0.032608815
0000c0 cd 3a f3 bc e6 24 52 bd 9c 00 73 3c 5e b2 73 bd
       -0.029691124 -0.05130472 0.014831688 -0.059496276
0000d0 a5 98 cb 3d d7 0d a1 3d f7 c5 db 3d 64 b8 16 3c
       0.09941224 0.07863968 0.10731118 0.009199236
0000e0 e1 4c 16 3d ff 2a 21 3c b9 53 63 bd a6 2a 01 be
       0.03669441 0.009836911 -0.055499766 -0.12613925
0000f0 3e d6 5a 3d b2 c4 50 3d 40 de 1b 3e a2 5c f1 3d
       0.053426974 0.050968833 0.152215 0.117852464
000100 17 5a 03 3d 44 8f f0 bd 76 65 ef bd 80 d6 45 bd
       0.03206834 -0.11746076 -0.11689274 -0.048300266
000110 be 80 e8 bc 70 c6 73 3c 63 01 88 bd f7 aa b4 3d
       -0.028381702 0.014878854 -0.066408895 0.088216715
000120 ea 4d 6e 3b 65 ac ef 3d 21 05 eb bd 9f 97 18 bd
       0.0036362358 0.117028035 -0.11475588 -0.037253972
000130 66 a1 d5 bd b8 c4 a2 bd 9a af 7e 3b 43 fe 8f 3d
       -0.10431175 -0.079476774 0.003886199 0.070309184
000140 37 0c d8 3c dc 03 33 bc f3 ee e4 3b c0 6d a6 3d
       0.026373012 -0.010926213 0.006986493 0.08126402
000150 be ff 20 3c e5 4f 12 3c 3b c7 f7 bd 04 6a d6 bd
       0.009826599 0.008930181 -0.12098547 -0.104694396
000160 8b 05 2b bd d5 25 d5 3d 9a e8 2d bd 76 a4 c8 3d
       -0.041753333 0.104076065 -0.042458154 0.097969934
000170 1f 04 cb 3c 51 fc ae bd 03 1e 4d bd 99 04 8d 3c
       0.024782239 -0.08544219 -0.05007745 0.017214106
000180 d3 fc 05 3b ac 52 5b 3d 1a 89 b8 3b 5c e2 84 bd
       0.0020444884 0.05354564 0.005631578 -0.06488487
000190 21 ff de 3d 7b 64 9a bd 6a 65 f4 3d 66 38 64 bd
       0.10888506 -0.075386964 0.11933406 -0.05571785
0001a0 01 42 c5 3c fd be 75 bd 03 07 7d bd 69 8b a4 bb
       0.024079325 -0.059996594 -0.061774265 -0.005021502
0001b0 f9 37 a0 bc 76 a8 29 bd 2b 31 0f be a2 d9 ab 3c
       -0.01955794 -0.041420422 -0.139836 0.020977799
0001c0 f4 05 c9 3c aa 9d 6f 3d 61 dd 03 bd 19 05 e1 bd
       0.024538971 0.05849997 -0.032193545 -0.109873004
0001d0 2e 80 8b 3d e4 4e 81 bd ac 08 1d 3c ee e8 7d 3d
       0.06811558 -0.06313875 0.009584587 0.061989717
0001e0 e9 30 51 bd ca 20 b4 bd c1 05 f5 3c 3b 07 77 bd
       -0.051072035 -0.087953165 0.02990997 -0.06030963
0001f0 b9 24 b8 3d f2 0b a6 3d 5d a4 b4 3d 2f 54 26 bd
       0.08991379 0.08107747 0.08820412 -0.040607627
000200 4f e0 6b bd 24 42 0b bd 4b d5 ca 3c 61 b7 94 3d
       -0.057586964 -0.033998623 0.02475991 0.07261539
000210 d2 5e 1c bc 50 fd 59 3d 62 a4 e1 bc 3b 9a ea 3c
       -0.009544091 0.053220093 -0.027544204 0.028637996
000220 47 85 7d bc 8e 63 84 bd f1 41 76 be 4e 6f 72 3c
       -0.01547367 -0.06464301 -0.24048592 0.014797045
000230 a7 5c 5b bd 04 71 52 bd e6 e3 4d 3c 03 29 e8 3d
       -0.053555157 -0.05137731 0.012566542 0.11335947
000240 6a ee e3 3d ba 56 2a bd c6 ac a7 bc 14 63 1f bb
       0.11129458 -0.041586615 -0.020468127 -0.002432053
000250 42 ba b4 ba 07 08 ef bd 78 a1 a1 3c 67 24 51 be
       -0.0013788419 -0.11671453 0.019730315 -0.20424043
000260 42 ac 1e bd 0d e5 eb bc fa e1 bf 3c cf fc 71 3d
       -0.038738497 -0.028795743 0.023423184 0.059078988
000270 bc a9 3f 3d 78 fb 39 bd 97 49 48 be 36 81 3b 3d
       0.04679273 -0.045405835 -0.19559322 0.045777522
000280 8a b9 d4 bb 06 c8 15 bd 29 0a be ba 85 45 79 3d
       -0.0064918445 -0.03656771 -0.0014498878 0.060857315
000290 04 90 9d bc 40 5f 95 3d cf 2a 6f 3d 00 95 c3 3d
       -0.019233711 0.07293558 0.058390435 0.09549904
0002a0 5d ed 59 bc b2 76 1f 3e 55 08 8a 3c dc 49 17 3d
       -0.013301221 0.15572622 0.016849676 0.036935672
0002b0 57 6b a0 bd aa d6 09 3c c4 11 36 bd 95 be 4a 3d
       -0.078329735 0.008412996 -0.044450536 0.04949816
0002c0 83 f1 ba bc 2c f7 98 bc 3f 28 9c 3c 88 e2 ad 3d
       -0.02282024 -0.018672548 0.01906216 0.08490473
0002d0 5b 09 1a bd 8e c1 be 3c e9 90 79 3d a7 db a5 3c
       -0.03760658 0.023285653 0.060929213 0.02024634
0002e0 c7 a9 ea bc 98 0d 4d bd cc cb 9f bd c6 ab 49 3d
       -0.02864541 -0.050061792 -0.07802543 0.04923608
0002f0 8e 84 e2 bd c6 65 cd bc 41 b3 93 3d a7 6c 7d 3d
       -0.11060439 -0.025072943 0.07211924 0.061871197
000300 8a 91 82 3d 4f dd d8 bd f8 a7 a9 3d 73 35 bd 3c
       0.063754156 -0.10589086 0.082839906 0.023096776
000310 cc a7 27 3d d1 62 c4 bb d5 fb 8f bd 9b 82 b9 3d
       0.040931508 -0.005993225 -0.07030455 0.09058114
000320 b0 39 24 bd 30 a0 4c 3d 30 de 1c be ab 67 dc 3c
       -0.040094078 0.049957454 -0.15319133 0.026904901
000330 02 b1 1d 3d 24 59 78 3d 3b a6 78 3d 71 75 28 bd
       0.038498886 0.060631886 0.060705405 -0.041127626
000340 f2 38 87 bd 57 1b d3 3d 1d 89 1c bd d9 4c 26 be
       -0.06602658 0.10307949 -0.0382167 -0.16240253
000350 be f2 7f bd 10 fb 3d bc 19 f7 ba bc 63 3a 92 3d
       -0.062487356 -0.0115955025 -0.022822903 0.07140043
000360 dc 24 c2 3c c1 47 b5 bd d5 9e b7 3d 94 a6 29 bc
       0.023699217 -0.088515766 0.08965842 -0.010354657
000370 79 87 90 bc a7 62 de bd 27 2f b2 bc 7a 8d 16 bd
       -0.017642723 -0.1085866 -0.021751 -0.036756016
000380 a0 73 d4 3a 9c 79 97 3c 5a 2b 5c 3d b3 c7 03 3d
       0.0016208775 0.018490605 0.05375228 0.03217287
000390 39 f4 0c 3d 63 90 a3 3b f8 92 cf bd 9c da f4 bd
       0.034412596 0.0049915775 -0.10135454 -0.11955759
0003a0 42 bd 77 bd 71 d4 44 bc 6a 5d f9 3c 47 0f d5 bc
       -0.060483225 -0.012013541 0.030440051 -0.026008261
0003b0 ea d2 dd bd 4e b0 63 3d 7d f3 c4 bc 98 8e 43 3d
       -0.10831244 0.05558806 -0.024041886 0.04774341
0003c0 6c 21 c0 bd 9f 59 2c bd 13 ba 9f 3d f4 6d 0c 3d
       -0.09381375 -0.042077657 0.07799163 0.034284547
0003d0 49 29 c9 bd bf 36 a4 3c ef 9b fd 3c 87 16 aa bb
       -0.09822328 0.020045636 0.030958144 -0.0051906737
0003e0 e5 6c 4a 3d 49 66 ca 3a f2 d6 a9 3a 6c 40 c5 bc
       0.049420256 0.001544186 0.0012957735 -0.02407857
0003f0 21 cf b7 bd f2 4c 77 3d cd 45 98 ba 11 b5 4d 3c
       -0.089750536 0.060376115 -0.0011617482 0.012555377

bias f4 [102]
000000 37 1f 34 3d 3a 33 96 3c 8a 12 ae 3c b0 27 aa bb
       0.04397508 0.018334974 0.021249074 -0.0051927194
000010 66 f5 81 3c 1e b0 f9 3c 58 7b c3 3c bb ce 29 bb
       0.015864085 0.030479487 0.023862526 -0.0025910574
000020 87 26 6f 3c ab 81 13 bd 8f 0f 06 3d 82 70 54 bb
       0.014596588 -0.036012333 0.03272968 -0.0032415693
000030 94 17 6f 3c 49 5b 03 3d a8 57 58 3c a0 78 05 3a
       0.014593024 0.03206948 0.013204493 0.0005091522
000040 77 05 d4 39 1e 1b 4f 3c 1f 9f 95 3c 70 cc 08 3c
       0.00040439863 0.012640743 0.018264351 0.008349523
000050 3b 6e a4 3c 64 cf 9b bc fd b9 bd 3c 28 dd b8 bc
       0.020072093 -0.01901979 0.023159975 -0.022566393
000060 6f 4e db 3b 0f 67 ad bc e8 0b 9f 3c b3 2f b3 bc
       0.0066926996 -0.021167306 0.019414857 -0.02187333
000070 1c a5 d2 3b 0b dc 96 3c 24 f9 47 3d 9c 5f b6 39
       0.006428374 0.018415472 0.048821583 0.0003478498
000080 45 3f 1f bb 7f d1 83 3c 0d e8 52 bb 22 e2 8b bc
       -0.0024299186 0.016091106 -0.003218177 -0.017075602
000090 3b d6 02 bc 2a 25 b7 bc 7c f0 c8 bb 69 65 e4 bc
       -0.007985647 -0.022356588 -0.0061321836 -0.027880387
0000a0 44 5d 24 bd 86 ff d3 bb fa 4d f3 bc d4 d9 bc bc
       -0.040128008 -0.0064696698 -0.029700268 -0.023053087
0000b0 e2 47 1d 3d 99 91 ab 3b 48 f1 d2 3c 9b 25 81 3c
       0.03839863 0.0052358625 0.025749817 0.015765002
0000c0 3e 0b fe 3b c5 ef d2 38 26 91 0e 3d ae b8 99 bb
       0.007752805 0.00010058241 0.034806393 -0.004691205
0000d0 ec c7 4d 3c fa 0e 9d 3c b9 d0 a1 3c 5d 76 05 3d
       0.012559872 0.01917218 0.019752847 0.032583583
0000e0 82 35 a5 3c b9 b9 82 bb fe 7c 41 bc a2 e4 56 bc
       0.020167116 -0.003989425 -0.011809586 -0.013116034
0000f0 84 75 41 3c b1 5d a6 3c b9 bb 33 b9 d4 98 08 bd
       0.011807803 0.020308347 -0.00017140702 -0.033348873
000100 1e 7a eb 3c f8 93 7b 3c 06 5d 8a 3c 5f ee a2 bc
       0.028744753 0.015355103 0.01689006 -0.019889055
000110 89 4f 5e 3b 7a 93 13 bc 5d d8 71 3c ca 77 39 3c
       0.0033921918 -0.009007329 0.014761058 0.011320064
000120 c4 8b b5 3c 46 ac f2 3c c6 b6 99 bc b2 22 ce 3b
       0.022161372 0.029623162 -0.018763911 0.006290757
000130 a0 57 14 bc 55 00 4f bc c0 94 37 3c 8f f4 6c 3a
       -0.009054095 -0.0126343565 0.011204898 0.00090391276
000140 99 dd 42 3c ed b2 a1 3c 84 3f cd bb 63 10 4b 3c
       0.011893653 0.019738639 -0.006263675 0.012394044
000150 8a 6b ab bb b0 79 c2 bc 0c f6 ee bc c2 c7 f1 3b
       -0.0052313255 -0.023739666 -0.029170059 0.0073785493
000160 20 65 3c bc 44 20 d1 bc 51 d6 d8 bc aa 2e 84 bc
       -0.011498719 -0.02552808 -0.026469382 -0.016135532
000170 25 0c 84 bc c3 94 f9 bc 57 43 08 bb 08 54 11 bc
       -0.016119072 -0.030466443 -0.002079209 -0.008870132
000180 eb 38 1b 3b 08 ee c5 bb 3d ab d4 bc d8 9c 56 bc
       0.0023685049 -0.0060403384 -0.025960559 -0.013098918
000190 20 30 07 bd 63 51 f8 3b
       -0.03300488 0.0075780614
